RL_model_temp.pth (torch, 274180 bytes, 6 tensors)

net.0.weight f4 [256, 3]
0.21058707 0.45506367 -0.106860004 0.3316514 0.3175883 0.41930076 0.14651436 0.2380176
0.37023494 0.047724824 0.14092134 0.44128338 -0.038509358 -0.55513364 -0.4095598 -0.31201193
0.08193667 0.5147243 -0.34738466 0.0027112984 0.30630437 -0.34635082 -0.02799408 0.049299177
0.4680026 -0.07727649 0.5988315 -0.38113603 -0.4845713 0.19948998 0.54248685 -0.18659069
-0.120786235 0.014614754 0.07134838 0.07571545 0.22172299 0.28681853 -0.40024525 -0.1977147
0.06476333 -0.149031 -0.39720055 -0.101343706 -0.5369323 0.17705476 0.22502632 0.48025358
-0.06917768 -0.06894843 -0.28899223 -0.069716565 0.5680976 0.34030464 0.195852 -0.08949913
0.094199255 -0.40441328 -0.48139343 -0.4485927 -0.031169262 -0.19410369 -0.32985532 0.17318557
-0.47254404 0.42735365 -0.49017534 -0.4610927 -0.6129132 -0.5252308 0.018305028 0.15139034
-0.49357155 0.1536766 -0.4867762 -0.36821365 0.5084835 0.120845646 0.19838 -0.45223504
-0.2968224 0.52432287 -0.47208172 0.4250381 0.5471467 -0.42793816 0.5224681 0.30151072
0.18530656 0.5305547 -0.5501026 -0.076290034 -0.28121224 -0.53251153 0.27642336 -0.1857823
0.24993137 0.3518046 0.409563 0.27132496 0.13674845 0.51102644 0.04275558 0.2371926
0.21413893 -0.2901142 0.3146995 0.4971513 -0.21844615 -0.08215057 0.30311733 -0.21888812
-0.3465916 -0.46968198 0.42354968 0.32640067 -0.31493992 -0.38347983 -0.5589991 0.4286108
-0.56152666 -0.283314 0.10028054 0.15301374 0.11462088 0.5156409 0.005972341 -0.3228753
0.60206276 -0.111595556 0.46688673 -0.02541784 -0.1875866 0.5910042 0.55865216 0.024835858
-0.32847396 -0.039660696 0.44301355 0.27609664 -0.5469488 -0.08225099 -0.35907134 -0.3112434
-0.22511734 0.17429142 -0.45899558 0.4266465 0.56970215 0.1489761 -0.35054648 0.4092942
-0.1466931 0.0067629484 -0.35516924 -0.5354016 -0.4091298 0.4975444 0.48357543 -0.011053344
-0.5930018 -0.09882219 0.17781045 -0.11319543 -0.4685642 -0.11288791 0.26717296 0.52764744
-0.5283331 0.21626014 -0.51189643 -0.5232203 -0.03262177 0.27347085 0.102559544 -0.2683413
0.30113602 0.2731869 -0.37284613 0.4508634 -0.3384954 0.20199046 0.37464696 0.43629003
0.44173047 0.15678446 0.19747484 -0.43320948 -0.4412679 -0.34016246 0.47471496 0.07671857
-0.21687464 -0.16999103 0.032845926 -0.20189027 0.27827874 0.029299982 -0.10369966 0.19432576
-0.21658704 0.08985697 0.14624593 0.040761765 0.20950623 0.31021565 -0.12516364 -0.12776469
-0.57654864 -0.38784316 0.5433076 -0.0025316665 0.38593823 -0.057721093 -0.15827465 -0.16776656
-0.55162567 0.5043797 0.41124958 0.0437344 0.2511665 0.15413992 0.33971733 0.20429517
-0.50173324 -0.23947738 0.34339952 -0.2030609 -0.41652197 -0.114003375 -0.5793822 -0.14316267
-0.3734812 0.12010838 -0.20970447 0.47935858 -0.31356806 -0.5076755 -0.14294657 -0.0895688
-0.26226577 -0.06291935 0.13802183 -0.4257809 -0.41562805 0.032341078 0.13676566 -0.48210806
-0.38285717 0.27596214 -0.17736173 -0.18627222 0.077764 -0.3986318 0.1225056 0.078630485
00000000: 23a4 573e 1bfe e83e 6bd9 dabd 36ce a93e
00000010: ef9a a23e 97ae d63e dc07 163e e3ba 733e
00000020: 6f8f bd3e 1b7b 433d af4d 103e e5ef e13e
00000030: fdbb 1dbd 3d1d 0ebf d2b1 d1be 07c0 9fbe
00000040: 6ace a73d f9c4 033f 67dc b1be 0ab0 313b
00000050: edd3 9c3e e554 b1be d753 e5bc efed 493d
00000060: 099e ef3e 2343 9ebd 054d 193f 4324 c3be
00000070: bb19 f8be 1a47 4c3e 6be0 0a3f a111 3fbe
00000080: c65e f7bd b972 6f3c 191f 923d b410 9b3d
00000090: 5a0b 633e e1d9 923e f2ec ccbe b975 4abe
000000a0: a3a2 843d 959b 18be df5d cbbe 4a8d cfbd
000000b0: 6574 09bf d84d 353e 4d6d 663e cce3 f53e
000000c0: 07ad 8dbd d634 8dbd caf6 93be 8fc7 8ebd
000000d0: d86e 113f 693c ae3e 6d8d 483e 524b b7bd
000000e0: 8aeb c03d 420f cfbe 3379 f6be f1ad e5be
000000f0: ae56 ffbc 1ec3 46be cce2 a8be 8f57 313e
00000100: 4bf1 f1be 19ce da3e 43f8 fabe 5814 ecbe
00000110: e1e7 1cbf 8775 06bf 6df4 953c 1206 1b3e
00000120: 69b5 fcbe 665d 1d3e bb3a f9be 8086 bcbe
00000130: fa2b 023f ec7d f73d 2024 4b3e 5a8b e7be
00000140: 1bf9 97be 063a 063f b2b4 f1be 989e d93e
00000150: ce11 0c3f b61a dbbe 78c0 053f 9d5f 9a3e
00000160: 01c1 3d3e 6fd2 073f 86d3 0cbf f33d 9cbd
00000170: 0dfb 8fbe ad52 08bf 5d87 8d3e b73d 3ebe
00000180: 02ee 7f3e bc1f b43e 3eb2 d13e 1beb 8a3e
00000190: c907 0c3e a1d2 023f 7a20 2f3d 9ee2 723e
000001a0: 3c47 5b3e d989 94be 4b20 a13e 9d8a fe3e
000001b0: 59b0 5fbe 8f3e a8bd 3232 9b3e 3524 60be
000001c0: 7474 b1be 287a f0be 81db d83e fd1d a73e
000001d0: ce3f a1be 7857 c4be 911a 0fbf e072 db3e
000001e0: 36c0 0fbf 880e 91be e25f cd3d a2af 1c3e
000001f0: 5abe ea3d 0b01 043f a1b3 c33b e94f a5be
00000200: c920 1a3f 368c e4bd c70b ef3e 1339 d0bc
00000210: b416 40be 0d4c 173f d403 0f3f 9274 cb3c
00000220: bd2d a8be 4173 22bd acd2 e23e 8a5c 8d3e
00000230: d604 0cbf 3573 a8bd 33d8 b7be 4c5b 9fbe
00000240: 2985 66be 7379 323e 7801 ebbe 6971 da3e
00000250: 00d8 113f 318d 183e d47a b3be 028f d13e
00000260: b736 16be b99b dd3b bed8 b5be 1410 09bf
00000270: 7679 d1be 24be fe3e 3397 f73e 1619 35bc
00000280: f7ce 17bf 4a63 cabd f113 363e 01d3 e7bd
00000290: a6e7 efbe c731 e7bd e5ca 883e e713 073f
000002a0: d740 07bf 4c73 5d3e a50b 03bf c4f1 05bf
000002b0: 689e 05bd 5f04 8c3e bd0a d23d 0864 89be
000002c0: 802e 9a3e 27df 8b3e b0e5 bebe 91d7 e63e
000002d0: 454f adbe 96d6 4e3e bad1 bf3e 6861 df3e
000002e0: 7f2a e23e 1b8c 203e d836 4a3e a2cd ddbe
000002f0: deed e1be c629 aebe d70d f33e a01e 9d3d
00000300: 6314 5ebe 2112 2ebe 7389 063d 53bc 4ebe
00000310: 8d7a 8e3e 8406 f03c 7d60 d4bd 55fd 463e
00000320: fec8 5dbe ee06 b83d 7ec1 153e cff5 263d
00000330: cd88 563e 96d4 9e3e e62a 00be bfd4 02be
00000340: b198 13bf 6193 c6be 3516 0b3f 51ea 25bb
00000350: b299 c53e f46c 6cbd c012 22be ffca 2bbe
00000360: 5737 0dbf 071f 013f 4e8f d23e d822 333d
00000370: e598 803e dbd6 1d3e 6eef ad3e c132 513e
00000380: 9771 00bf 8f39 75be 10d2 af3e 32ef 4fbe
00000390: 5e42 d5be 9a7a e9bd 6452 14bf 3c99 12be
000003a0: ee38 bfbe 62fb f53d c5bc 56be 7d6e f53e
000003b0: fe8b a0be 06f7 01bf 9660 12be d96f b7bd
000003c0: b347 86be dcdb 80bd 9855 0d3e f4ff d9be
000003d0: 33cd d4be 1478 043d 4c0c 0c3e ded6 f6be
000003e0: db05 c4be e94a 8d3e 509e 35be 25be 3ebe
000003f0: bb42 9f3d 7819 ccbe 37e4 fa3d 0509 a13d

net.0.bias f4 [256]
-0.4771685 0.26398394 0.5624024 -0.07912615 0.28871125 0.28223816 0.25481036 -0.09065032
-0.45790288 0.1373314 -0.3863735 0.08876427 0.16783765 -0.56128013 0.34540603 0.4242764
-0.023482773 0.30688468 0.5834762 0.5115268 -0.1974807 0.058001343 0.35772142 0.05441564
-0.5031322 -0.45043233 0.3134392 -0.052276254 0.038563788 -0.46369267 0.2040898 -0.31474665
-0.23252964 0.0068398267 -0.004694821 0.13612765 0.16655837 0.509592 0.37516138 0.5686293
0.15613107 -0.44109723 -0.0059326133 0.31681603 0.3653263 -0.35055938 -0.006970687 0.36780715
0.53822356 -0.29078045 0.48485485 -0.23668334 -0.5389677 0.33678538 -0.52730185 0.53826994
-0.5234414 -0.0045036627 0.20673065 -0.28967705 -0.15670158 -0.12271912 -0.56850916 0.31786662
-0.40040666 -0.5877415 -0.31856602 -0.50232303 -0.1673838 0.43974307 0.07162612 -0.20891649
0.13710243 -0.5433945 0.026423175 0.5024318 0.39148635 -0.5384794 0.26357502 -0.44111478
0.3087629 0.39890936 -0.5933078 -0.48904616 -0.4912097 -0.09612124 0.15927683 0.06804397
-0.61603385 0.4403038 0.1630792 0.2737897 0.4494202 -0.50907 0.09008012 -0.21519859
0.017686807 -0.116522804 0.18052073 -0.5162657 -0.15164085 0.578187 0.47158903 0.47043064
0.5936448 0.21880533 -0.39641413 -0.43386588 -0.23492084 0.33853722 0.28225827 -0.37597847
-0.06982314 -0.08729259 -0.21969102 0.21256116 -0.25341454 0.2250054 0.5506138 0.36766762
-0.1892207 -0.016418012 -0.048655458 0.52140135 -0.30474076 0.2118138 -0.2522745 -0.14536235
-0.14645964 -0.07252804 0.044137724 -0.12600727 0.3918151 -0.3213133 -0.4262719 -0.51315635
0.24144171 0.46725595 -0.036201604 -0.54159987 -0.5235389 0.29679945 0.010590582 0.2306122
0.42328644 0.2714458 -0.067090936 -0.056688763 -0.23062785 0.02804342 0.45923865 -0.04523843
0.6007308 -0.0058381315 0.22837745 -0.23254669 0.25703153 0.53816223 -0.10176402 -0.3991298
0.4962584 -0.5257875 0.45342842 -0.06306994 -0.4997881 0.36948752 0.46381247 -0.46890545
0.26516113 -0.27427402 0.5011125 0.18766479 0.51667356 -0.51873034 0.30660564 0.13231686
-0.37781927 -0.06874164 0.2617186 0.09032888 -0.5503327 0.13798156 0.18687622 0.19499119
0.36276612 -0.042021975 0.3779527 -0.332691 0.11009328 0.00797469 -0.24150556 -0.030582191
-0.07300627 0.5156318 -0.25889876 0.25766253 0.03730392 0.2583556 -0.43402356 -0.11937747
0.28283846 0.097258255 -0.5183244 -0.30056947 0.36749312 -0.05826981 0.47355 -0.42759025
-0.11328892 0.02230737 0.42997134 -0.18103306 0.44853312 0.29806092 -0.5799624 0.3465996
-0.13815998 0.39630327 0.497003 -0.16505423 -0.3116815 0.5278776 -0.04547253 0.06644661
0.45395494 0.33665684 0.54736906 -0.1166037 -0.45454752 -0.0892654 -0.115852125 -0.29670048
-0.34536037 0.3671 -0.42831826 0.52877194 0.47873434 0.45149598 0.47452146 0.2859871
-0.44635865 0.38435075 0.55550385 0.36627033 -0.30462542 -0.10777163 -0.0017532285 0.4192728
-0.37141582 0.27145344 0.20312819 0.22745259 0.07918936 -0.32279566 0.094779275 0.4837556
00000000: 6e4f f4be e728 873e 9bf9 0f3f e40c a2bd
00000010: f6d1 933e 8581 903e 8176 823e e0a6 b9bd
00000020: 3f72 eabe 9aa0 0c3e bfd2 c5be 0bca b53d
00000030: a2dd 2b3e 0eb0 0fbf 0fd9 b03e c23a d93e
00000040: f25e c0bc fd1f 9d3e b25e 153f 6cf3 023f
00000050: 6138 4abe d192 6d3d 4327 b73e efe2 5e3d
00000060: 46cd 00bf 119f e6be 1a7b a03e a01f 56bd
00000070: 10f5 1d3d 2069 edbe ebfc 503e 7926 a1be
00000080: 401c 6ebe a020 e03b 03d7 99bb 0c65 0b3e
00000090: 478e 2a3e 9f74 023f 2715 c03e b191 113f
000000a0: d3e0 1f3e 7fd7 e1be 5e66 c2bb b635 a23e
000000b0: 0c0c bb3e 857c b3be 5c6a e4bb 3851 bc3e
000000c0: 05c9 093f 2de1 94be e53e f83e 1e5d 72be
000000d0: caf9 09bf 226f ac3e 41fd 06bf 0fcc 093f
000000e0: 4100 06bf 7693 93bb 33b1 533e 8d50 94be
000000f0: 6176 20be 2954 fbbd d189 11bf 6abf a23e
00000100: 1a02 cdbe 3a76 16bf 161b a3be 3e98 00bf
00000110: a966 2bbe 0126 e13e b7b0 923d 34ee 55be
00000120: 9464 0c3e e71b 0bbf 6a75 d83c 5f9f 003f
00000130: e670 c83e c9d9 09bf 4ef3 863e ccd9 e1be
00000140: 2c16 9e3e d93d cc3e 05e3 17bf 4264 fabe
00000150: d67f fbbe 36db c4bd 7719 233e a35a 8b3d
00000160: 65b4 1dbf 806f e13e 3cfe 263e 2a2e 8c3e
00000170: 681a e63e 6952 02bf ed7b b83d 055d 5cbe
00000180: ece3 903c 82a3 eebd 6dda 383e fd29 04bf
00000190: bd47 1bbe 1004 143f 1e74 f13e 49dc f03e
000001a0: 1bf9 173f 810e 603e cbf6 cabe ab23 debe
000001b0: 178f 70be c054 ad3e 2884 903e 4080 c0be
000001c0: 6fff 8ebd 75c6 b2bd aff6 60be a2a9 593e
000001d0: 8dbf 81be d167 663e 07f5 0c3f ee3e bc3e
000001e0: 12c3 41be 117f 86bc f24a 47bd 8f7a 053f
000001f0: fb06 9cbe b7e5 583e 202a 81be ded9 14be
00000200: 84f9 15be 9589 94bd c2c9 343d 0d08 01be
00000210: fd9b c83e 2d83 a4be 4f40 dabe 375e 03bf
00000220: 7f3c 773e 2c3c ef3e 2248 14bd 4aa6 0abf
00000230: a506 06bf 19f6 973e 1f84 2d3c 9b25 6c3e
00000240: 00b9 d83e f2fa 8a3e f966 89bd 7a32 68bd
00000250: b529 6cbe 50bb e53c 5421 eb3e ef4b 39bd
00000260: 7ec9 193f cc4d bfbb c7db 693e b820 6ebe
00000270: a399 833e 00c5 093f a869 d0bd be5a ccbe
00000280: 9515 fe3e 029a 06bf c527 e83e d02a 81bd
00000290: 3ae4 ffbe 782d bd3e d478 ed3e 6014 f0be
000002a0: 33c3 873e a56d 8cbe e948 003f 332b 403e
000002b0: b844 043f 83cb 04bf 6afb 9c3e 127e 073e
000002c0: 8771 c1be 6bc8 8cbd fbff 853e 59fe b83d
000002d0: 9be2 0cbf 0a4b 0d3e 7b5c 3f3e c5ab 473e
000002e0: 7bbc b93e 3c1f 2cbd 0483 c13e 7a56 aabe
000002f0: 9678 e13d 46a8 023c 3c4d 77be 8187 fabc
00000300: 5084 95bd 7200 043f 618e 84be 58ec 833e
00000310: ffcb 183d 2f47 843e 5638 debe 2d7c f4bd
00000320: 34d0 903e 562f c73d e8b0 04bf 3ee4 99be
00000330: 0f28 bc3e 53ac 6ebd 2575 f23e 1ced dabe
00000340: 0504 e8bd f2bd b63c 3425 dc3e bb60 39be
00000350: 22a6 e53e 719b 983e 6a78 14bf 8175 b13e
00000360: cf79 0dbe 43e8 ca3e 2d77 fe3e fa03 29be
00000370: b894 9fbe fd22 073f 6741 3abd 2915 883d
00000380: c86c e83e 495e ac3e 6120 0c3f eccd eebd
00000390: 74ba e8be c7d0 b6bd e143 edbd 20e9 97be
000003a0: 13d3 b0be 88f4 bb3e 884c dbbe 995d 073f
000003b0: ab1c f53e 7b2a e73e 7af4 f23e e76c 923e
000003c0: 1f89 e4be 9fc9 c43e 8035 0e3f c987 bb3e
000003d0: ddf7 9bbe 5fb7 dcbd 96cc e5ba edaa d63e
000003e0: 372a bebe f2fb 8a3e d600 503e 55e9 683e
000003f0: 082e a23d 7945 a5be a31b c23d d0ae f73e

net.2.weight f4 [256, 256]
-0.0017086983 -0.0005503013 -0.032929484 -0.023264961 0.022244066 0.03859679 0.033445988 0.060918964
0.024682226 -0.00835 0.032012224 -0.022869304 0.019780133 -0.03508192 0.029987171 0.05292004
0.04119563 -0.026749087 0.019195193 -0.052275963 -0.012105721 0.02192835 0.00034734336 -0.014334692
0.04883637 -0.03310554 0.06171476 -0.049043354 0.005781183 0.04379727 -0.025830874 0.034963783
0.079472385 0.07088171 -0.0034595795 0.02581437 0.027362393 -0.04151305 0.029526107 0.066033386
0.026575139 -0.025805123 0.032803167 0.018420774 0.020942321 0.023834478 -0.030887488 0.0325431
-0.0146501 0.043010537 0.038486697 -0.023199074 0.052397136 -0.02013254 -0.06633967 -0.031606648
-0.06275291 0.040782668 -0.039803457 -0.042166032 -0.021745656 0.055763304 -0.06720126 -0.029025123
0.024802485 -0.027591875 -0.02677624 -0.060201067 -0.0077441633 -0.021648454 0.04306865 0.025233995
0.006201093 -0.07114992 0.02244088 0.014224709 0.036858294 0.029536242 0.0051546018 -0.0325726
0.046273187 0.06697992 -0.04345351 -0.034564212 -0.0033733079 0.000620489 -0.057567056 0.0099313995
-0.005771461 0.0705429 -0.042469792 0.00071159034 0.04418474 0.015440344 0.026479753 0.049494255
-0.0111754425 0.019840028 0.006025319 -0.059473835 -0.0061892653 0.016295176 -0.05081022 0.058218833
0.06618971 -0.01577026 0.01270334 0.026350468 -0.009974143 -0.012044144 -0.0062239175 0.011165366
0.045849223 0.012613153 0.009037149 0.0060177343 0.029197581 0.003430492 -0.005126294 0.018015062
-0.081844635 0.058790796 0.0714719 -0.03603063 0.033151623 0.05653531 -0.039183356 0.049138647
-0.046814665 0.0073975874 0.054041285 -0.047415856 -0.04045953 0.041168332 0.04759681 -0.056694284
0.05909253 -0.025314253 0.02620888 0.021560235 -0.03345501 0.067390636 -0.040358584 -0.021246944
-0.021860776 0.030077124 0.060852125 -0.009761075 0.095801115 -0.04458742 0.05917565 -0.06167547
-0.039064184 -0.016893312 0.0573122 0.035262782 -0.053877287 0.019936394 -0.016780378 -0.013998197
-0.020676218 -0.037917618 0.011378195 0.06367293 0.05174471 0.013718672 0.0036137416 -0.0013641713
0.0026830835 0.009746151 -0.039184585 0.003758711 -0.0037370392 -0.06465744 -0.005887547 0.0075579416
0.046612278 0.020658424 0.05184251 -0.034412473 0.008303966 0.040965363 0.05880706 -7.476993e-06
-0.0063825496 0.051987424 0.073627 -0.030813215 -0.0290192 -0.053196654 -0.037401207 0.0177082
-0.035697248 -0.04927139 0.055933453 0.06398378 0.041177455 -0.03212588 -0.03716424 0.04739054
0.056746535 0.059179164 -0.01775588 0.03240802 0.041495092 -0.020921497 -0.044746332 0.019696943
-0.013973956 0.039201163 0.03531273 -0.06641035 -0.03615732 0.044417016 -0.020222759 0.0169667
0.03189299 0.03264877 0.01538053 -0.0616357 0.033677712 0.029321004 -0.0091189025 -0.039822057
0.015444733 0.0092692105 -0.0106634945 -0.0035941324 0.039298713 0.002261823 0.05357464 -0.046601824
-0.03718723 0.0135398675 -0.034062624 0.06636144 -0.031071428 -0.004864568 0.035669453 0.0040177796
-0.046583228 0.03931649 0.022673462 0.07426801 -0.06382695 0.01172036 0.020898985 0.052559663
-0.007580895 -0.02552141 -0.0020808186 0.073583454 -0.050336935 0.050318 -0.036791556 0.042848863
00000000: 67f6 dfba 1842 10ba 11e1 06bd 2996 bebc
00000010: 3039 b63c ab17 1e3d a9fe 083d 2a86 793d
00000020: 6132 ca3c 70ce 08bc 401f 033d 6858 bbbc
00000030: f209 a23c 0fb2 0fbd a8a7 f53c afc2 583d
00000040: c0bc 283d e720 dbbc 3d3f 9d3c 521f 56bd
00000050: 1357 46bc 15a3 b33c a31b b639 0edc 6abc
00000060: a508 483d ad99 07bd 9ec8 7c3d afe1 48bd
00000070: 1470 bd3b c464 333d 459b d3bc 2f36 0f3d
00000080: 6bc2 a23d 6e2a 913d 1dba 62bb a878 d33c
00000090: 1927 e03c 9709 2abd bce0 f13c 833c 873d
000000a0: 1bb4 d93c 4465 d3bc 9d5c 063d 2ae7 963c
000000b0: 3b8f ab3c 8640 c33c c207 fdbc ea4b 053d
000000c0: f906 70bc d12b 303d 3aa4 1d3d fc0b bebc
000000d0: 619e 563d ffec a4bc 18dd 87bd f975 01bd
000000e0: 9984 80bd ba0b 273d f308 23bd 4ab6 2cbd
000000f0: f223 b2bc 1068 643d d0a0 89bd 18c6 edbc
00000100: 952e cb3c 5b08 e2bc d859 dbbc 6595 76bd
00000110: c0c2 fdbb 1958 b1bc c168 303d 86b7 ce3c
00000120: 8a32 cb3b 0db7 91bd f0d5 b73c c10e 693c
00000130: b9f8 163d fdf5 f13c efe7 a83b d96a 05bd
00000140: f488 3d3d c52c 893d 4ffc 31bd 3493 0dbd
00000150: b712 5dbb 50a8 223a 6fcb 6bbd 4fb7 223c
00000160: 861e bdbb cc78 903d cef4 2dbd 058a 3a3a
00000170: 0ffb 343d 7ff9 7c3c 11ec d83c 7dba 4a3d
00000180: 3419 37bc 8e87 a23c 0a70 c53b d69a 73bd
00000190: 52cf cabb 767d 853c 611e 50bd df76 6e3d
000001a0: 788e 873d a230 81bc ab21 503c f0dc d73c
000001b0: 966a 23bc cd54 45bc 01f2 cbbb f0ee 363c
000001c0: 65cc 3b3d 66a7 4e3c 8d10 143c 6a30 c53b
000001d0: c42f ef3c 1bd2 603b 79fa a7bb 5394 933c
000001e0: 299e a7bd 9ece 703d dc5f 923d db94 13bd
000001f0: ffc9 073d 9291 673d ba7e 20bd 9b45 493d
00000200: bcc0 3fbd 7667 f23b 655a 5d3d 2137 42bd
00000210: e4b8 25bd 20a0 283d dff4 423d 4438 68bd
00000220: 020b 723d d65f cfbc 01b4 d63c 179f b03c
00000230: 1f08 09bd 1a04 8a3d 0b4f 25bd 120e aebc
00000240: 5f15 b3bc 4d64 f63c 1440 793d eaec 1fbc
00000250: 6033 c43d 4ca1 36bd 2b62 723d 6b9f 7cbd
00000260: c401 20bd d863 8abc 33c0 6a3d b56f 103d
00000270: 6eae 5cbd a651 a33c 0177 89bc b258 65bc
00000280: 2c61 a9bc 814f 1bbd 9c6b 3a3c f466 823d
00000290: 43f2 533d 48c4 603c 86d4 6c3b fecd b2ba
000002a0: acd6 2f3b 52ae 1f3c 0480 20bd b554 763b
000002b0: 1de9 74bb 1f6b 84bd 53ec c0bb 9ca8 f73b
000002c0: 84ec 3e3d db3b a93c d058 543d 18f4 0cbd
000002d0: 5c0d 083c 4ccb 273d acdf 703d e1e2 fab6
000002e0: b524 d1bb c4f0 543d c1c9 963d ff6b fcbc
000002f0: acb9 edbc bce4 59bd 0232 19bd c910 913c
00000300: 4737 12bd ccd0 49bd 7a1a 653d ee09 833d
00000310: b1a9 283d 6d96 03bd 8839 18bd 951c 423d
00000320: 0e6f 683d da65 723d c774 91bc 46be 043d
00000330: c2f6 293d 8f63 abbc ee47 37bd 7c5b a13c
00000340: 05f3 64bc 6691 203d 15a4 103d 2602 88bd
00000350: b319 14bd 9eee 353d 33aa a5bc c0fd 8a3c
00000360: 39a2 023d b7ba 053d 9efe 7b3c b775 7cbd
00000370: a4f1 093d 9a32 f03c 7367 15bc 741c 23bd
00000380: e80b 7d3c e3dd 173c f0b5 2ebc 898b 6bbb
00000390: b0f7 203d 183b 143b 1571 5b3d 8ee1 3ebd
000003a0: a351 18bd 52d6 5d3c 4085 0bbd 82e8 873d
000003b0: 8289 febc f466 9fbb 221a 123d 94a7 833b
000003c0: 0ece 3ebd 540a 213d b2bd b93c d419 983d
000003d0: b4b7 82bd c106 403c 5934 ab3c cd48 573d
000003e0: 2869 f8bb 4712 d1bc 585e 08bb ecb2 963d
000003f0: 1a2e 4ebd 3f1a 4e3d beb2 16bd 4a82 2f3d

net.2.bias f4 [256]
0.020630322 0.014241565 0.05843825 -0.0426481 0.029230496 -0.041587412 0.043863602 -0.025178637
-0.026160227 -0.054242916 0.041272342 -0.018281972 0.06955541 -0.0039053983 -0.016529238 0.030089619
-0.030347448 0.07870432 -0.06367683 0.0024145246 -0.019118592 0.03363946 0.015180588 -0.034982033
-0.010640529 -0.036426596 0.02872453 -0.031986948 0.0111394515 0.07674234 0.021239892 -0.05336459
0.061435774 0.063798174 0.059777968 0.053843748 0.044838842 0.028933588 0.0946877 -0.06346717
0.026911719 -0.05764659 -0.0429657 0.05361615 0.011180055 0.013503697 -0.07045245 -0.04098759
0.041880567 -0.030103339 0.07289836 -0.0672469 -0.05184885 -0.06196151 0.042544656 -0.05376753
0.051092084 0.051799886 0.01855939 -0.017463595 -0.02214767 -0.0074381465 0.05996316 -0.037800938
-0.019113347 -0.015933812 0.061167262 0.043833748 -0.0039942856 0.027635075 -0.0439808 0.04531595
-0.06719642 -0.007846462 -0.02565863 0.048423447 -0.011106839 0.09807881 0.059832055 -0.033638164
0.07736879 0.03475177 -0.01300174 0.047541976 -0.023426509 -0.05402514 -0.0030792847 0.032727215
-0.012538223 0.011713411 0.053675074 -0.032916036 0.028124368 0.056510992 -0.036994595 -0.069594204
-0.009669015 0.008585548 -0.03954912 -0.009620898 -0.03516008 0.046829905 0.036832318 -0.02708784
0.04720077 -0.018929899 -0.0119111985 -0.052699372 0.028245667 -0.03603997 -0.04432442 -0.017226536
-0.01679702 0.015132086 -0.056407787 -0.01822255 0.060562287 0.053183466 0.02400233 -0.03147258
-0.05538851 0.03533268 0.040178075 -0.04150013 -0.033559065 -0.06827612 0.06926595 -0.03042983
0.038561907 0.032195583 -0.0357161 0.020957941 0.021437176 0.061222088 -0.03910625 0.0009342731
-0.0112575535 -0.023305524 0.011425145 -0.06081391 0.060505517 -0.0028216818 0.021124471 0.00992419
-0.009783317 0.008132232 -0.025449993 0.053150028 0.06813972 0.009359551 -0.008855586 -0.037329923
0.049747076 0.018661812 0.08278163 0.018445663 -0.018846422 -0.049563967 -0.009490487 -0.028646754
0.07387919 -0.019747738 -0.00018933586 -0.04260086 0.048489857 0.016376657 -0.031641442 0.060718335
0.041812863 -0.055309307 0.030016366 0.0217218 -0.05982589 0.014074242 -0.025887758 -0.036853112
0.0034832237 -0.008137521 -0.016444098 -0.05008982 0.02822245 0.021187676 0.0028252401 0.06603839
0.0396841 0.012442438 -0.025958452 0.064678155 0.024085531 -0.061530538 0.0541287 -0.014761306
0.025424605 -0.060680177 -0.001662013 0.045278464 -0.020498112 0.04522569 0.035101827 -0.037811182
0.03842981 0.09260846 -0.015056708 -0.04342147 0.029492753 -0.02882812 0.010173935 0.009667954
-0.00994385 -0.07415592 0.0076888097 -0.062413543 -0.03866154 -0.0513705 -0.012747157 -0.028228596
-0.03036005 0.000131209 0.024631722 -0.00983791 -0.023885274 0.04916752 0.03936276 -0.040256117
-0.052226346 -0.023909818 0.008082709 -2.4765816e-06 0.009133922 -0.045602903 -0.027200677 0.03089082
-0.027456671 -0.06665692 0.024741257 0.0048165866 -0.040268913 0.008227155 -0.062936425 0.06133844
-0.031243397 -0.039879944 -0.029570198 0.05702772 0.06326192 0.015007069 -0.020970093 -0.0014317292
-0.0057371184 0.020967513 0.041881613 0.033930067 0.027459234 -0.036549523 0.015007782 -0.030851245
00000000: ec00 a93c 7455 693c f25c 6f3d c6af 2ebd
00000010: cb74 ef3c 9057 2abd 52aa 333d 6e43 cebc
00000020: f94d d6bc d22d 5ebd 300d 293d 13c4 95bc
00000030: 1173 8e3d b6f1 7fbb 5368 87bc 817e f63c
00000040: 369b f8bc bb2f a13d ff68 82bd 003d 1e3b
00000050: 989e 9cbc 88c9 093d 00b8 783c 5249 0fbd
00000060: 9d55 2ebc 0e34 15bd b54f eb3c bf04 03bd
00000070: 3f82 363c 172b 9d3d 48ff ad3c d494 5abd
00000080: 14a4 7b3d 9ea8 823d bed9 743d 438b 5c3d
00000090: efa8 373d 2206 ed3c a0eb c13d 13fb 81bd
000000a0: f775 dc3c d51e 6cbd cdfc 2fbd 9c9c 5b3d
000000b0: 8d2c 373c 9c3e 5d3c 6049 90bd 9ae2 27bd
000000c0: f58a 2b3d 479b f6bc bc4b 953d beb8 89bd
000000d0: 765f 54bd 5acb 7dbd 4e43 2e3d 573b 5cbd
000000e0: ef45 513d 1e2c 543d dd09 983c d00f 8fbc
000000f0: 086f b5bc b2bb f3bb ee9b 753d 28d5 1abd
00000100: 9893 9cbc a087 82bc 868a 7a3d 048b 333d
00000110: 7fe2 82bb f462 e23c 3625 34bd 389d 393d
00000120: 479e 89bd 728e 00bc 0c32 d2bc aa57 463d
00000130: 76f9 35bc 8bdd c83d 7512 753d 2cc8 09bd
00000140: 8773 9e3d df57 0e3d 4005 55bc 60bb 423d
00000150: f3e8 bfbc 7749 5dbd d3cd 49bb f90c 063d
00000160: 1e6d 4dbc 9be9 3f3c 65da 5b3d f7d2 06bd
00000170: 1365 e63c 1278 673d a587 17bd 6887 8ebd
00000180: ca6a 1ebc 66aa 0c3c 42fe 21bd f9a0 1dbc
00000190: 0404 10bd b7d0 3f3d 7cdd 163d 51e7 ddbc
000001a0: 9855 413d e012 9bbc 3027 43bc 4cdb 57bd
000001b0: 7563 e73c a69e 13bd 868d 35bd aa1e 8dbc
000001c0: e799 89bc 92ec 773c da0b 67bd 7547 95bc
000001d0: 2910 783d e8d6 593d 89a0 c43c 64e9 00bd
000001e0: 10df 62bd 00b9 103d c491 243d 0afc 29bd
000001f0: 3b75 09bd 5ad4 8bbd 4edb 8d3d fb47 f9bc
00000200: 17f3 1d3d 84df 033d 0c4b 12bd fdaf ab3c
00000210: 049d af3c 03c4 7a3d e02d 20bd 02ea 743a
00000220: 9a71 38bc 3aeb bebc 8830 3b3c 0218 79bd
00000230: a2d4 773d f7eb 38bb 3a0d ad3c 1299 223c
00000240: 354a 20bc 0e3d 053c 817c d0bc d8b3 593d
00000250: d68c 8b3d cd58 193c 0517 11bc 43e7 18bd
00000260: 97c3 4b3d a8e0 983c 6a89 a93d 5c1b 973c
00000270: d063 9abc 9603 4bbd fd7d 1bbc 99ac eabc
00000280: f94d 973d 02c6 a1bc 7588 46b9 3d7e 2ebd
00000290: 4d9d 463d 5728 863c 759a 01bd cab3 783d
000002a0: f743 2b3d 038c 62bd e2e4 f53c ebf1 b13c
000002b0: fe0b 75bd a697 663c 9012 d4bc 4af3 16bd
000002c0: cc46 643b 3d53 05bc c6b5 86bc fc2a 4dbd
000002d0: c432 e73c c791 ad3c aa27 393b 233f 873d
000002e0: cb8b 223d 5edb 4b3c d2a6 d4bc fb75 843d
000002f0: 054f c53c 7207 7cbd 0eb6 5d3d 68d9 71bc
00000300: 4347 d03c c78b 78bd e7d7 d9ba e975 393d
00000310: a8eb a7bc 933e 393d efc6 0f3d e6df 1abd
00000320: 9468 1d3d 81a9 bd3d 69b0 76bc b6da 31bd
00000330: c99a f13c f328 ecbc 94b0 263c 5766 1e3c
00000340: 88eb 22bc 0fdf 97bd 69f2 fb3b 58a5 7fbd
00000350: 905b 1ebd e069 52bd 74d9 50bc a83f e7bc
00000360: a4b5 f8bc 2695 0939 77c8 c93c 2f2f 21bc
00000370: 0dab c3bc e263 493d d83a 213d 99e3 24bd
00000380: 4beb 55bd 86de c3bc 576d 043c 5933 26b6
00000390: 72a6 153c 1cca 3abd f4d3 debc bf0e fd3c
000003a0: d0ec e0bc 6c83 88bd 2dae ca3c 75d4 9d3b
000003b0: 04f1 24bd 30cb 063c d0e4 80bd 043e 7b3d
000003c0: 27f2 ffbc 2759 23bd 333d f2bc e695 693d
000003d0: 778f 813d 36e0 753c 79c9 abbc dca8 bbba
000003e0: 70fe bbbb 10c4 ab3c 0e8c 2b3d 41fa 0a3d
000003f0: 30f2 e03c f4b4 15bd 33e3 753c c0bb fcbc

net.4.weight f4 [4, 256]
0.028640477 -0.0012297275 0.083870575 0.025732141 -0.013503457 0.06502766 0.01993816 0.030601857
-0.040660568 -0.06747161 -0.052466195 0.004302425 0.058351934 0.066873975 0.070558466 0.04018511
-0.019360552 0.049386267 0.040777717 -0.010874368 -0.057493646 -0.055049848 0.048853397 0.051058482
-0.013988115 -0.039196055 0.039774828 0.010255884 0.031596553 0.07500616 -0.05638411 0.045504186
0.065842755 -0.0063878666 0.0619275 -0.055207927 -0.007076566 -0.01913206 -0.04656809 -0.023814155
-0.0052547534 0.027251303 0.056726772 0.02975469 -0.07604622 -0.06268079 -0.04750756 0.007935777
0.028270494 0.03009173 0.06879404 0.0181437 0.016699754 0.0038946446 0.009629969 -0.004878026
-0.054572314 0.046203345 -0.019787785 0.079507604 0.0045795743 0.02339128 0.011733844 0.05888132
-0.019318856 -0.0544292 0.030565456 -0.04542131 0.05316365 -0.066710025 0.008453883 0.011999599
-0.0066617313 -0.004145752 -0.03853803 -0.016155181 -0.029618373 0.021899074 -0.03209916 -0.062261693
-0.014501184 -0.025304152 0.04263594 0.06344809 -0.0049397526 -0.0515083 -0.025771925 0.03642172
-0.028949762 -0.0026995377 -0.047489468 -0.04023366 0.06280155 -0.0059780315 -0.021705193 -0.08061882
-0.015380063 -7.5953525e-05 0.034819365 0.017476203 0.014380971 -0.045442 0.036320854 0.019558564
-0.008580912 -0.008986257 -0.014024124 0.014081538 0.038214177 -0.0011346133 -0.009619398 0.046292238
0.03388285 -0.05440573 -0.007699822 -0.036163907 0.02696645 0.0035153339 0.023343405 -0.0045851534
-0.03812553 -0.047186006 0.036256567 0.024570517 -0.0696046 -0.04107363 0.019388976 -0.012728683
-0.054086898 -0.015220329 -0.022329906 0.046880677 -0.041221913 0.06708752 -0.048782907 -0.060928874
0.056182303 -0.02895833 -0.07072009 -0.027883895 0.06908019 0.008565083 -0.015716365 -0.0089227725
-0.047077075 0.07059343 0.05798035 -0.035789378 -0.005235698 0.050818793 -0.058347926 -0.04104815
0.02802896 0.054053664 0.01613992 -0.024589306 -0.032771006 -0.024342995 0.03814047 -0.059739817
-0.06997144 -0.024036122 -0.019470956 -0.042607278 0.060370144 0.054570287 -0.057931405 0.0002668737
0.0037063577 -0.04467297 -0.006373317 -0.05920988 0.024080826 0.07227056 -0.052626655 -0.018378302
-0.0027147783 0.025065878 0.022479303 -0.044840086 0.051235933 -0.01884601 -0.030121367 -0.010209571
-0.010357735 0.0319936 0.0336183 0.038514663 -0.045246754 -0.07081634 0.045364786 0.009693873
0.05317646 0.062175896 -0.0021698982 -0.020807806 -0.0423322 -0.04499402 0.008805435 -0.0017977908
-0.05153799 -0.010136403 -0.03221635 -0.007904127 0.0022757621 0.031807035 0.05319785 -0.027806422
0.018046657 -0.020893026 0.015332095 -0.05955811 -0.03743648 -0.015314778 -0.027446 0.0077520856
-0.06124924 -0.039772872 -0.00037251317 -0.058852997 -0.008027009 -0.027074784 0.030415684 0.03787385
-0.033419535 0.047373578 0.03980456 -0.056204613 0.0599562 -0.018978335 -0.06553415 -0.00015703442
0.0053822617 -0.010020462 -0.0025044458 0.0046708207 0.0042299484 -0.003570848 -0.06296473 0.043307565
0.059034716 0.051644776 0.04422777 0.051449496 -0.04039118 -0.026581572 -0.062635124 0.022774035
0.02827707 0.031211792 -0.01559902 -0.032386407 0.02838024 0.058509745 0.009533452 -0.07692299
00000000: 6f9f ea3c cf2e a1ba 56c4 ab3d 36cc d23c
00000010: 9b3d 5dbc 392d 853d 5a55 a33c bfb0 fa3c
00000020: b28b 26bd 8e2e 8abd cbe6 56bd 5bfb 8c3b
00000030: 7002 6f3d 39f5 883d f580 903d 2499 243d
00000040: 059a 9ebc 4149 4a3d 8906 273d 682a 32bc
00000050: 757e 6bbd f37b 61bd 801a 483d b322 513d
00000060: 682e 65bc 0b8c 20bd eeea 223d 4c08 283c
00000070: 636b 013d d49c 993d 06f3 66bd 9962 3a3d
00000080: 91d8 863d 4f51 d1bb b1a7 7d3d b521 62bd
00000090: 8ae2 e7bb d7ba 9cbc 2ebe 3ebd e715 c3bc
000000a0: 1130 acbb 203e df3c 555a 683d 1cc0 f33c
000000b0: 1fbe 9bbd c95e 80bd 4a97 42bd 1005 023c
000000c0: 8697 e73c ef82 f63c e4e3 8c3d 19a2 943c
000000d0: eccd 883c 4b3d 7f3b 04c7 1d3c d9d7 9fbb
000000e0: 3887 5fbd b83f 3d3d fe19 a2bc e2d4 a23d
000000f0: 4110 963b 129f bf3c 4f3f 403c 8a2d 713d
00000100: 9442 9ebc 27f1 5ebd 6864 fa3c b20b 3abd
00000110: 21c2 593d 449f 88bd 2882 0a3c f799 443c
00000120: a74a dabb 17d9 87bb 0eda 1dbd df57 84bc
00000130: 3ba2 f2bc b065 b33c 697a 03bd 1e06 7fbd
00000140: 6096 6dbc a74a cfbc 06a3 2e3d 12f1 813d
00000150: a6dd a1bb 5efa 52bd a51f d3bc f12e 153d
00000160: 0d28 edbc baea 30bb 5184 42bd 0dcc 24bd
00000170: 199e 803d 5de3 c3bb 17cf b1bc 7b1b a5bd
00000180: a9fc 7bbc 3d49 9fb8 c09e 0e3d 412a 8f3c
00000190: 2a9e 6b3c 6421 3abd 2dc5 143d 4839 a03c
000001a0: f496 0cbc 183b 13bc 70c5 65bc 40b6 663c
000001b0: 7886 1c3d 4eb7 94ba ae9a 1dbc ee9c 3d3d
000001c0: bec8 0a3d 8bd8 5ebd ca4e fcbb 9b20 14bd
000001d0: bfe8 dc3c 8461 663b ab3a bf3c 0e3f 96bb
000001e0: 8429 1cbd 1d46 41bd c481 143d 1c48 c93c
000001f0: db8c 8ebd d33c 28bd a1d5 9e3c f78b 50bc
00000200: 398a 5dbd b05e 79bc 35ed b6bc f405 403d
00000210: 4fd8 28bd 2f65 893d 96d0 47bd 8e90 79bd
00000220: 6a1f 663d 053a edbc b2d5 90bd c46c e4bc
00000230: ea79 8d3d 9054 0c3c 9bbf 80bc d230 12bc
00000240: e4d3 40bd 4a93 903d ce7c 6d3d e297 12bd
00000250: 3890 abbb 5e27 503d 3cfe 6ebd 1b22 28bd
00000260: fd9c e53c 6067 5d3d de37 843c 836f c9bc
00000270: e43a 06bd f66a c7bc 2e39 1c3d bdb1 74bd
00000280: 304d 8fbd 67e7 c4bc 8e81 9fbc f884 2ebd
00000290: af46 773d 1885 5f3d 7b49 6dbd 2feb 8b39
000002a0: 5de6 723b 01fb 36bd 42d7 d0bb 0f86 72bd
000002b0: 2745 c53c 9602 943d 0c8f 57bd 188e 96bc
000002c0: 6cea 31bb f556 cd3c 8426 b83c 3daa 37bd
000002d0: c5dc 513d f362 9abc 16c1 f6bc 0b46 27bc
000002e0: 7db3 29bc b90b 033d 58b3 093d 8dc1 1d3d
000002f0: a954 39bd 2808 91bd 6dd0 393d 0dd3 1e3c
00000300: 8fcf 593d 27ac 7e3d da34 0ebb 2275 aabc
00000310: 8764 2dbd a64b 38bd ac44 103c d9a3 ebba
00000320: 8019 53bd 2813 26bc 4bf5 03bd 5080 01bc
00000330: f424 153b 1848 023d fde5 593d 4bca e3bc
00000340: 95d6 933c da27 abbc 7833 7b3c 34f3 73bd
00000350: ff56 19bd d6ea 7abc 6fd6 e0bc 3505 fe3b
00000360: 7ce0 7abd e1e8 22bd df4d c3b9 d70f 71bd
00000370: b783 03bc f0cb ddbc 502a f93c 9c21 1b3d
00000380: ece2 08bd cc0a 423d 1b0a 233d cf36 66bd
00000390: a294 753d 7478 9bbc c536 86bd 9ba9 24b9
000003a0: af5d b03b dd2c 24bc a121 24bb af0d 993b
000003b0: 619b 8a3b e304 6abb a7f3 80bd 4663 313d
000003c0: 63ce 713d 7989 533d 2e28 353d b5bc 523d
000003d0: 3971 25bd 99c1 d9bc d846 80bd 9d90 ba3c
000003e0: 50a5 e73c dfaf ff3c 0893 7fbc 9ca7 04bd
000003f0: ad7d e83c eaa7 6f3d 3232 1c3c cd89 9dbd

net.4.bias f4 [4]
-0.04899495 -0.039470263 -0.01200013 -0.061436806
00000000: eeae 48bd 92ab 21bd 319c 44bc 29a5 7bbd
